…
###############output folder###############################
/home/tuomas_pyorre/Unlabeled_Captioning/ImageTextAutoencoder/output/flowers_2020_06_26_21_30_38
Initializing Datasets and Dataloaders...
###############output folder###############################
/home/tuomas_pyorre/Unlabeled_Captioning/ImageTextAutoencoder/output/flowers_2020_06_26_21_30_38
Initializing Datasets and Dataloaders...
Loading vocabulary, embedding matrix from trained text model.....
loading pretrained embeddings.......................
################### loading successful ####################
DataParallel(
  (module): D_NET_TEXT1(
    (encodings): Sequential(
      (0): Linear(in_features=100, out_features=400, bias=True)
      (1): LeakyReLU(negative_slope=0.2, inplace=True)
      (2): Linear(in_features=400, out_features=200, bias=True)
      (3): LeakyReLU(negative_slope=0.2, inplace=True)
      (4): Linear(in_features=200, out_features=200, bias=True)
      (5): LeakyReLU(negative_slope=0.2, inplace=True)
      (6): Linear(in_features=200, out_features=200, bias=True)
      (7): LeakyReLU(negative_slope=0.2, inplace=True)
    )
    (logits): Sequential(
      (0): Linear(in_features=200, out_features=1, bias=True)
      (1): Sigmoid()
    )
  )
)
DataParallel(
  (module): D_NET_IMAGE(
    (encodings): Sequential(
      (0): Linear(in_features=1024, out_features=512, bias=True)
      (1): LeakyReLU(negative_slope=0.2, inplace=True)
      (2): Linear(in_features=512, out_features=256, bias=True)
      (3): LeakyReLU(negative_slope=0.2, inplace=True)
    )
    (logits): Sequential(
      (0): Linear(in_features=256, out_features=1, bias=True)
    )
  )
)
=> loading Image encoder from '../output/flowers_3stages_2023_12_03_23_26_46/Model/encG_160000.pth'
###############output folder###############################
/home/tuomas_pyorre/Unlabeled_Captioning/ImageTextAutoencoder/output/flowers_2020_06_26_21_30_38
Initializing Datasets and Dataloaders...
Loading vocabulary, embedding matrix from trained text model.....
loading pretrained embeddings.......................
################### loading successful ####################
DataParallel(
  (module): D_NET_TEXT1(
    (encodings): Sequential(
      (0): Linear(in_features=100, out_features=400, bias=True)
      (1): LeakyReLU(negative_slope=0.2, inplace=True)
      (2): Linear(in_features=400, out_features=200, bias=True)
      (3): LeakyReLU(negative_slope=0.2, inplace=True)
      (4): Linear(in_features=200, out_features=200, bias=True)
      (5): LeakyReLU(negative_slope=0.2, inplace=True)
      (6): Linear(in_features=200, out_features=200, bias=True)
      (7): LeakyReLU(negative_slope=0.2, inplace=True)
    )
    (logits): Sequential(
      (0): Linear(in_features=200, out_features=1, bias=True)
      (1): Sigmoid()
    )
  )
)
DataParallel(
  (module): D_NET_IMAGE(
    (encodings): Sequential(
      (0): Linear(in_features=1024, out_features=512, bias=True)
      (1): LeakyReLU(negative_slope=0.2, inplace=True)
      (2): Linear(in_features=512, out_features=256, bias=True)
      (3): LeakyReLU(negative_slope=0.2, inplace=True)
    )
    (logits): Sequential(
      (0): Linear(in_features=256, out_features=1, bias=True)
    )
  )
)
=> loading Image encoder from '../output/flowers_3stages_2023_12_03_23_26_46/Model/encG_160000.pth'
###############output folder###############################
/home/tuomas_pyorre/Unlabeled_Captioning/ImageTextAutoencoder/output/flowers_2020_06_26_21_30_38
Initializing Datasets and Dataloaders...
Loading vocabulary, embedding matrix from trained text model.....
loading pretrained embeddings.......................
################### loading successful ####################
DataParallel(
  (module): D_NET_TEXT1(
    (encodings): Sequential(
      (0): Linear(in_features=100, out_features=400, bias=True)
      (1): LeakyReLU(negative_slope=0.2, inplace=True)
      (2): Linear(in_features=400, out_features=200, bias=True)
      (3): LeakyReLU(negative_slope=0.2, inplace=True)
      (4): Linear(in_features=200, out_features=200, bias=True)
      (5): LeakyReLU(negative_slope=0.2, inplace=True)
      (6): Linear(in_features=200, out_features=200, bias=True)
      (7): LeakyReLU(negative_slope=0.2, inplace=True)
    )
    (logits): Sequential(
      (0): Linear(in_features=200, out_features=1, bias=True)
      (1): Sigmoid()
    )
  )
)
DataParallel(
  (module): D_NET_IMAGE(
    (encodings): Sequential(
      (0): Linear(in_features=1024, out_features=512, bias=True)
      (1): LeakyReLU(negative_slope=0.2, inplace=True)
      (2): Linear(in_features=512, out_features=256, bias=True)
      (3): LeakyReLU(negative_slope=0.2, inplace=True)
    )
    (logits): Sequential(
      (0): Linear(in_features=256, out_features=1, bias=True)
    )
  )
)
=> loading Image encoder from '../output/flowers_3stages_2023_12_03_23_26_46/Model/encG_160000.pth'
###############output folder###############################
/home/tuomas_pyorre/Unlabeled_Captioning/ImageTextAutoencoder/output/flowers_2020_06_26_21_30_38
Initializing Datasets and Dataloaders...
Loading vocabulary, embedding matrix from trained text model.....
loading pretrained embeddings.......................
################### loading successful ####################
DataParallel(
  (module): D_NET_TEXT1(
    (encodings): Sequential(
      (0): Linear(in_features=100, out_features=400, bias=True)
      (1): LeakyReLU(negative_slope=0.2, inplace=True)
      (2): Linear(in_features=400, out_features=200, bias=True)
      (3): LeakyReLU(negative_slope=0.2, inplace=True)
      (4): Linear(in_features=200, out_features=200, bias=True)
      (5): LeakyReLU(negative_slope=0.2, inplace=True)
      (6): Linear(in_features=200, out_features=200, bias=True)
      (7): LeakyReLU(negative_slope=0.2, inplace=True)
    )
    (logits): Sequential(
      (0): Linear(in_features=200, out_features=1, bias=True)
      (1): Sigmoid()
    )
  )
)
DataParallel(
  (module): D_NET_IMAGE(
    (encodings): Sequential(
      (0): Linear(in_features=1024, out_features=512, bias=True)
      (1): LeakyReLU(negative_slope=0.2, inplace=True)
      (2): Linear(in_features=512, out_features=256, bias=True)
      (3): LeakyReLU(negative_slope=0.2, inplace=True)
    )
    (logits): Sequential(
      (0): Linear(in_features=256, out_features=1, bias=True)
    )
  )
)
=> loading Image encoder from '../output/flowers_3stages_2023_12_03_23_26_46/Model/encG_160000.pth'
###############output folder###############################
/home/tuomas_pyorre/Unlabeled_Captioning/ImageTextAutoencoder/output/flowers_2020_06_26_21_30_38
Initializing Datasets and Dataloaders...
Loading vocabulary, embedding matrix from trained text model.....
loading pretrained embeddings.......................
################### loading successful ####################
DataParallel(
  (module): D_NET_TEXT1(
    (encodings): Sequential(
      (0): Linear(in_features=100, out_features=400, bias=True)
      (1): LeakyReLU(negative_slope=0.2, inplace=True)
      (2): Linear(in_features=400, out_features=200, bias=True)
      (3): LeakyReLU(negative_slope=0.2, inplace=True)
      (4): Linear(in_features=200, out_features=200, bias=True)
      (5): LeakyReLU(negative_slope=0.2, inplace=True)
      (6): Linear(in_features=200, out_features=200, bias=True)
      (7): LeakyReLU(negative_slope=0.2, inplace=True)
    )
    (logits): Sequential(
      (0): Linear(in_features=200, out_features=1, bias=True)
      (1): Sigmoid()
    )
  )
)
DataParallel(
  (module): D_NET_IMAGE(
    (encodings): Sequential(
      (0): Linear(in_features=1024, out_features=512, bias=True)
      (1): LeakyReLU(negative_slope=0.2, inplace=True)
      (2): Linear(in_features=512, out_features=256, bias=True)
      (3): LeakyReLU(negative_slope=0.2, inplace=True)
    )
    (logits): Sequential(
      (0): Linear(in_features=256, out_features=1, bias=True)
    )
  )
)
=> loading Image encoder from '../output/flowers_3stages_2023_12_03_23_26_46/Model/encG_160000.pth'
=> loading Image decoder from '../output/flowers_3stages_2023_12_03_23_26_46/Model/netG_160000.pth'
=> loading text autoencoder from 'stored_model_dir/AutoEncoderDglove100_flowerTrue0.pt'
###############output folder###############################
/home/tuomas_pyorre/Unlabeled_Captioning/ImageTextAutoencoder/output/flowers_2020_06_26_21_30_38
Initializing Datasets and Dataloaders...
Loading vocabulary, embedding matrix from trained text model.....
loading pretrained embeddings.......................
################### loading successful ####################
DataParallel(
  (module): D_NET_TEXT1(
    (encodings): Sequential(
      (0): Linear(in_features=100, out_features=400, bias=True)
      (1): LeakyReLU(negative_slope=0.2, inplace=True)
      (2): Linear(in_features=400, out_features=200, bias=True)
      (3): LeakyReLU(negative_slope=0.2, inplace=True)
      (4): Linear(in_features=200, out_features=200, bias=True)
      (5): LeakyReLU(negative_slope=0.2, inplace=True)
      (6): Linear(in_features=200, out_features=200, bias=True)
      (7): LeakyReLU(negative_slope=0.2, inplace=True)
    )
    (logits): Sequential(
      (0): Linear(in_features=200, out_features=1, bias=True)
      (1): Sigmoid()
    )
  )
)
DataParallel(
  (module): D_NET_IMAGE(
    (encodings): Sequential(
      (0): Linear(in_features=1024, out_features=512, bias=True)
      (1): LeakyReLU(negative_slope=0.2, inplace=True)
      (2): Linear(in_features=512, out_features=256, bias=True)
      (3): LeakyReLU(negative_slope=0.2, inplace=True)
    )
    (logits): Sequential(
      (0): Linear(in_features=256, out_features=1, bias=True)
    )
  )
)
=> loading Image encoder from '../output/flowers_3stages_2023_12_03_23_26_46/Model/encG_160000.pth'
=> loading Image decoder from '../output/flowers_3stages_2023_12_03_23_26_46/Model/netG_160000.pth'
=> loading text autoencoder from 'stored_model_dir/AutoEncoderDglove100_flowerTrue0.pt'
###############output folder###############################
/home/tuomas_pyorre/Unlabeled_Captioning/ImageTextAutoencoder/output/flowers_2020_06_26_21_30_38
Initializing Datasets and Dataloaders...
Loading vocabulary, embedding matrix from trained text model.....
loading pretrained embeddings.......................
################### loading successful ####################
DataParallel(
  (module): D_NET_TEXT1(
    (encodings): Sequential(
      (0): Linear(in_features=100, out_features=400, bias=True)
      (1): LeakyReLU(negative_slope=0.2, inplace=True)
      (2): Linear(in_features=400, out_features=200, bias=True)
      (3): LeakyReLU(negative_slope=0.2, inplace=True)
      (4): Linear(in_features=200, out_features=200, bias=True)
      (5): LeakyReLU(negative_slope=0.2, inplace=True)
      (6): Linear(in_features=200, out_features=200, bias=True)
      (7): LeakyReLU(negative_slope=0.2, inplace=True)
    )
    (logits): Sequential(
      (0): Linear(in_features=200, out_features=1, bias=True)
      (1): Sigmoid()
    )
  )
)
DataParallel(
  (module): D_NET_IMAGE(
    (encodings): Sequential(
      (0): Linear(in_features=1024, out_features=512, bias=True)
      (1): LeakyReLU(negative_slope=0.2, inplace=True)
      (2): Linear(in_features=512, out_features=256, bias=True)
      (3): LeakyReLU(negative_slope=0.2, inplace=True)
    )
    (logits): Sequential(
      (0): Linear(in_features=256, out_features=1, bias=True)
    )
  )
)
=> loading Image encoder from '../output/flowers_3stages_2023_12_03_23_26_46/Model/encG_160000.pth'
###############output folder###############################
/home/tuomas_pyorre/Unlabeled_Captioning/ImageTextAutoencoder/output/flowers_2020_06_26_21_30_38
Initializing Datasets and Dataloaders...
Loading vocabulary, embedding matrix from trained text model.....
loading pretrained embeddings.......................
################### loading successful ####################
DataParallel(
  (module): D_NET_TEXT1(
    (encodings): Sequential(
      (0): Linear(in_features=100, out_features=400, bias=True)
      (1): LeakyReLU(negative_slope=0.2, inplace=True)
      (2): Linear(in_features=400, out_features=200, bias=True)
      (3): LeakyReLU(negative_slope=0.2, inplace=True)
      (4): Linear(in_features=200, out_features=200, bias=True)
      (5): LeakyReLU(negative_slope=0.2, inplace=True)
      (6): Linear(in_features=200, out_features=200, bias=True)
      (7): LeakyReLU(negative_slope=0.2, inplace=True)
    )
    (logits): Sequential(
      (0): Linear(in_features=200, out_features=1, bias=True)
      (1): Sigmoid()
    )
  )
)
DataParallel(
  (module): D_NET_IMAGE(
    (encodings): Sequential(
      (0): Linear(in_features=1024, out_features=512, bias=True)
      (1): LeakyReLU(negative_slope=0.2, inplace=True)
      (2): Linear(in_features=512, out_features=256, bias=True)
      (3): LeakyReLU(negative_slope=0.2, inplace=True)
    )
    (logits): Sequential(
      (0): Linear(in_features=256, out_features=1, bias=True)
    )
  )
)
=> loading Image encoder from '../output/flowers_3stages_2023_12_03_23_26_46/Model/encG_160000.pth'
=> loading Image decoder from '../output/flowers_3stages_2023_12_03_23_26_46/Model/netG_160000.pth'
=> loading text autoencoder from 'stored_model_dir/AutoEncoderDglove100_flowerTrue0.pt'
image emb shape: torch.Size([32, 1024])
REAL LOGITS:  tensor([… device='cuda:0',
…
FAKE LABELS:  tensor([0., 0., 0., 0., 0., 0., 0., 0., 0., 0., 0., 0., 0., 0., 0., 0., 0., 0., 0., 0., 0., 0., 0., 0.,
        0., 0., 0., 0., 0., 0., 0., 0.], device='cuda:0')
###############output folder###############################
/home/tuomas_pyorre/Unlabeled_Captioning/ImageTextAutoencoder/output/flowers_2020_06_26_21_30_38
Initializing Datasets and Dataloaders...
Loading vocabulary, embedding matrix from trained text model.....
loading pretrained embeddings.......................
################### loading successful ####################
DataParallel(
  (module): D_NET_TEXT1(
    (encodings): Sequential(
      (0): Linear(in_features=100, out_features=400, bias=True)
      (1): LeakyReLU(negative_slope=0.2, inplace=True)
      (2): Linear(in_features=400, out_features=200, bias=True)
      (3): LeakyReLU(negative_slope=0.2, inplace=True)
      (4): Linear(in_features=200, out_features=200, bias=True)
      (5): LeakyReLU(negative_slope=0.2, inplace=True)
      (6): Linear(in_features=200, out_features=200, bias=True)
      (7): LeakyReLU(negative_slope=0.2, inplace=True)
    )
    (logits): Sequential(
      (0): Linear(in_features=200, out_features=1, bias=True)
      (1): Sigmoid()
    )
  )
)
DataParallel(
  (module): D_NET_IMAGE(
    (encodings): Sequential(
      (0): Linear(in_features=1024, out_features=512, bias=True)
      (1): LeakyReLU(negative_slope=0.2, inplace=True)
      (2): Linear(in_features=512, out_features=256, bias=True)
      (3): LeakyReLU(negative_slope=0.2, inplace=True)
    )
    (logits): Sequential(
      (0): Linear(in_features=256, out_features=1, bias=True)
    )
  )
)
=> loading Image encoder from '../output/flowers_3stages_2023_12_03_23_26_46/Model/encG_160000.pth'
=> loading Image decoder from '../output/flowers_3stages_2023_12_03_23_26_46/Model/netG_160000.pth'
=> loading text autoencoder from 'stored_model_dir/AutoEncoderDglove100_flowerTrue0.pt'
image emb shape: torch.Size([32, 1024])
image emb shape: torch.Size([32, 1024])
…
<generator object Module.parameters at 0x7fa548cb89e0>
<generator object Module.parameters at 0x7fa548cb8c80>
<generator object Module.parameters at 0x7fa548cb8c80>
###############output folder###############################
/home/tuomas_pyorre/Unlabeled_Captioning/ImageTextAutoencoder/output/flowers_2020_06_26_21_30_38
Initializing Datasets and Dataloaders...
Loading vocabulary, embedding matrix from trained text model.....
loading pretrained embeddings.......................
################### loading successful ####################
DataParallel(
  (module): D_NET_TEXT1(
    (encodings): Sequential(
      (0): Linear(in_features=100, out_features=400, bias=True)
      (1): LeakyReLU(negative_slope=0.2, inplace=True)
      (2): Linear(in_features=400, out_features=200, bias=True)
      (3): LeakyReLU(negative_slope=0.2, inplace=True)
      (4): Linear(in_features=200, out_features=200, bias=True)
      (5): LeakyReLU(negative_slope=0.2, inplace=True)
      (6): Linear(in_features=200, out_features=200, bias=True)
      (7): LeakyReLU(negative_slope=0.2, inplace=True)
    )
    (logits): Sequential(
      (0): Linear(in_features=200, out_features=1, bias=True)
      (1): Sigmoid()
    )
  )
)
DataParallel(
  (module): D_NET_IMAGE(
    (encodings): Sequential(
      (0): Linear(in_features=1024, out_features=512, bias=True)
      (1): LeakyReLU(negative_slope=0.2, inplace=True)
      (2): Linear(in_features=512, out_features=256, bias=True)
      (3): LeakyReLU(negative_slope=0.2, inplace=True)
    )
    (logits): Sequential(
      (0): Linear(in_features=256, out_features=1, bias=True)
    )
  )
)
=> loading Image encoder from '../output/flowers_3stages_2023_12_03_23_26_46/Model/encG_160000.pth'
=> loading Image decoder from '../output/flowers_3stages_2023_12_03_23_26_46/Model/netG_160000.pth'
=> loading text autoencoder from 'stored_model_dir/AutoEncoderDglove100_flowerTrue0.pt'
… ###############output folder###############################
/home/tuomas_pyorre/Unlabeled_Captioning/ImageTextAutoencoder/output/flowers_2020_06_26_21_30_38
Initializing Datasets and Dataloaders...
Loading vocabulary, embedding matrix from trained text model.....
loading pretrained embeddings.......................
################### loading successful ####################
DataParallel(
  (module): D_NET_TEXT1(
    (encodings): Sequential(
      (0): Linear(in_features=100, out_features=400, bias=True)
      (1): LeakyReLU(negative_slope=0.2, inplace=True)
      (2): Linear(in_features=400, out_features=200, bias=True)
      (3): LeakyReLU(negative_slope=0.2, inplace=True)
      (4): Linear(in_features=200, out_features=200, bias=True)
      (5): LeakyReLU(negative_slope=0.2, inplace=True)
      (6): Linear(in_features=200, out_features=200, bias=True)
      (7): LeakyReLU(negative_slope=0.2, inplace=True)
    )
    (logits): Sequential(
      (0): Linear(in_features=200, out_features=1, bias=True)
      (1): Sigmoid()
    )
  )
)
DataParallel(
  (module): D_NET_IMAGE(
    (encodings): Sequential(
      (0): Linear(in_features=1024, out_features=512, bias=True)
      (1): LeakyReLU(negative_slope=0.2, inplace=True)
      (2): Linear(in_features=512, out_features=256, bias=True)
      (3): LeakyReLU(negative_slope=0.2, inplace=True)
    )
    (logits): Sequential(
      (0): Linear(in_features=256, out_features=1, bias=True)
    )
  )
)
=> loading Image encoder from '../output/flowers_3stages_2023_12_03_23_26_46/Model/encG_160000.pth'
=> loading Image decoder from '../output/flowers_3stages_2023_12_03_23_26_46/Model/netG_160000.pth'
=> loading text autoencoder from 'stored_model_dir/AutoEncoderDglove100_flowerTrue0.pt'
###############output folder###############################
/home/tuomas_pyorre/Unlabeled_Captioning/ImageTextAutoencoder/output/flowers_2020_06_26_21_30_38
Initializing Datasets and Dataloaders...
Loading vocabulary, embedding matrix from trained text model.....
loading pretrained embeddings.......................
################### loading successful ####################
DataParallel(
  (module): D_NET_TEXT1(
    (encodings): Sequential(
      (0): Linear(in_features=100, out_features=400, bias=True)
      (1): LeakyReLU(negative_slope=0.2, inplace=True)
      (2): Linear(in_features=400, out_features=200, bias=True)
      (3): LeakyReLU(negative_slope=0.2, inplace=True)
      (4): Linear(in_features=200, out_features=200, bias=True)
      (5): LeakyReLU(negative_slope=0.2, inplace=True)
      (6): Linear(in_features=200, out_features=200, bias=True)
      (7): LeakyReLU(negative_slope=0.2, inplace=True)
    )
    (logits): Sequential(
      (0): Linear(in_features=200, out_features=1, bias=True)
      (1): Sigmoid()
    )
  )
)
DataParallel(
  (module): D_NET_IMAGE(
    (encodings): Sequential(
      (0): Linear(in_features=1024, out_features=512, bias=True)
      (1): LeakyReLU(negative_slope=0.2, inplace=True)
      (2): Linear(in_features=512, out_features=256, bias=True)
      (3): LeakyReLU(negative_slope=0.2, inplace=True)
    )
    (logits): Sequential(
      (0): Linear(in_features=256, out_features=1, bias=True)
    )
  )
)
=> loading Image encoder from '../output/flowers_3stages_2023_12_03_23_26_46/Model/encG_160000.pth'
=> loading Image decoder from '../output/flowers_3stages_2023_12_03_23_26_46/Model/netG_160000.pth'
=> loading text autoencoder from 'stored_model_dir/AutoEncoderDglove100_flowerTrue0.pt'
[1/500][220]
                         Loss_DIT: 1.01 Loss_GIT: 0.69 Loss_DTI: 1.40 Loss_GTI: 0.75 Time: 328.79s
…
